Yolo_v5(
  7.31 M, 100.000% Params, 8.51 GMac, 99.989% MACs, 
  (main_net.CSPDarknet.Focus.conv.conv): Conv2d(3.46 k, 0.047% Params, 353.89 MMac, 4.156% MACs, 12, 32, kernel_size=(3, 3), stride=(1, 1), padding=(1, 1), bias=False)
  (main_net.CSPDarknet.Focus.conv.bn): BatchNorm2d(64, 0.001% Params, 6.55 MMac, 0.077% MACs, 32, eps=0.001, momentum=0.03, affine=True, track_running_stats=True)
  (main_net.CSPDarknet.Focus.conv.lkrelu): LeakyReLU(0, 0.000% Params, 3.28 MMac, 0.038% MACs, negative_slope=0.1, inplace=True)
  (main_net.CSPDarknet.ResBlock1.Conv.conv): Conv2d(18.43 k, 0.252% Params, 471.86 MMac, 5.542% MACs, 32, 64, kernel_size=(3, 3), stride=(2, 2), padding=(1, 1), bias=False)
  (main_net.CSPDarknet.ResBlock1.Conv.bn): BatchNorm2d(128, 0.002% Params, 3.28 MMac, 0.038% MACs, 64, eps=0.001, momentum=0.03, affine=True, track_running_stats=True)
  (main_net.CSPDarknet.ResBlock1.Conv.lkrelu): LeakyReLU(0, 0.000% Params, 1.64 MMac, 0.019% MACs, negative_slope=0.1, inplace=True)
  (main_net.CSPDarknet.ResBlock1.BottleneckCSP.cv1.conv): Conv2d(2.05 k, 0.028% Params, 52.43 MMac, 0.616% MACs, 64, 32, kernel_size=(1, 1), stride=(1, 1), bias=False)
  (main_net.CSPDarknet.ResBlock1.BottleneckCSP.cv1.bn): BatchNorm2d(64, 0.001% Params, 1.64 MMac, 0.019% MACs, 32, eps=0.001, momentum=0.03, affine=True, track_running_stats=True)
  (main_net.CSPDarknet.ResBlock1.BottleneckCSP.cv1.lkrelu): LeakyReLU(0, 0.000% Params, 819.2 KMac, 0.010% MACs, negative_slope=0.1, inplace=True)
  (main_net.CSPDarknet.ResBlock1.BottleneckCSP.cv2): Conv2d(2.05 k, 0.028% Params, 52.43 MMac, 0.616% MACs, 64, 32, kernel_size=(1, 1), stride=(1, 1), bias=False)
  (main_net.CSPDarknet.ResBlock1.BottleneckCSP.cv3): Conv2d(1.02 k, 0.014% Params, 26.21 MMac, 0.308% MACs, 32, 32, kernel_size=(1, 1), stride=(1, 1), bias=False)
  (main_net.CSPDarknet.ResBlock1.BottleneckCSP.cv4.conv): Conv2d(4.1 k, 0.056% Params, 104.86 MMac, 1.232% MACs, 64, 64, kernel_size=(1, 1), stride=(1, 1), bias=False)
  (main_net.CSPDarknet.ResBlock1.BottleneckCSP.cv4.bn): BatchNorm2d(128, 0.002% Params, 3.28 MMac, 0.038% MACs, 64, eps=0.001, momentum=0.03, affine=True, track_running_stats=True)
  (main_net.CSPDarknet.ResBlock1.BottleneckCSP.cv4.lkrelu): LeakyReLU(0, 0.000% Params, 1.64 MMac, 0.019% MACs, negative_slope=0.1, inplace=True)
  (main_net.CSPDarknet.ResBlock1.BottleneckCSP.bn): BatchNorm2d(128, 0.002% Params, 3.28 MMac, 0.038% MACs, 64, eps=0.001, momentum=0.03, affine=True, track_running_stats=True)
  (main_net.CSPDarknet.ResBlock1.BottleneckCSP.lkrelu): LeakyReLU(0, 0.000% Params, 1.64 MMac, 0.019% MACs, negative_slope=0.1, inplace=True)
  (main_net.CSPDarknet.ResBlock1.BottleneckCSP.Bottleneck_layers.0.cv1.conv): Conv2d(1.02 k, 0.014% Params, 26.21 MMac, 0.308% MACs, 32, 32, kernel_size=(1, 1), stride=(1, 1), bias=False)
  (main_net.CSPDarknet.ResBlock1.BottleneckCSP.Bottleneck_layers.0.cv1.bn): BatchNorm2d(64, 0.001% Params, 1.64 MMac, 0.019% MACs, 32, eps=0.001, momentum=0.03, affine=True, track_running_stats=True)
  (main_net.CSPDarknet.ResBlock1.BottleneckCSP.Bottleneck_layers.0.cv1.lkrelu): LeakyReLU(0, 0.000% Params, 819.2 KMac, 0.010% MACs, negative_slope=0.1, inplace=True)
  (main_net.CSPDarknet.ResBlock1.BottleneckCSP.Bottleneck_layers.0.cv2.conv): Conv2d(9.22 k, 0.126% Params, 235.93 MMac, 2.771% MACs, 32, 32, kernel_size=(3, 3), stride=(1, 1), padding=(1, 1), bias=False)
  (main_net.CSPDarknet.ResBlock1.BottleneckCSP.Bottleneck_layers.0.cv2.bn): BatchNorm2d(64, 0.001% Params, 1.64 MMac, 0.019% MACs, 32, eps=0.001, momentum=0.03, affine=True, track_running_stats=True)
  (main_net.CSPDarknet.ResBlock1.BottleneckCSP.Bottleneck_layers.0.cv2.lkrelu): LeakyReLU(0, 0.000% Params, 819.2 KMac, 0.010% MACs, negative_slope=0.1, inplace=True)
  (main_net.CSPDarknet.ResBlock2.Conv.conv): Conv2d(73.73 k, 1.009% Params, 471.86 MMac, 5.542% MACs, 64, 128, kernel_size=(3, 3), stride=(2, 2), padding=(1, 1), bias=False)
  (main_net.CSPDarknet.ResBlock2.Conv.bn): BatchNorm2d(256, 0.004% Params, 1.64 MMac, 0.019% MACs, 128, eps=0.001, momentum=0.03, affine=True, track_running_stats=True)
  (main_net.CSPDarknet.ResBlock2.Conv.lkrelu): LeakyReLU(0, 0.000% Params, 819.2 KMac, 0.010% MACs, negative_slope=0.1, inplace=True)
  (main_net.CSPDarknet.ResBlock2.BottleneckCSP.cv1.conv): Conv2d(8.19 k, 0.112% Params, 52.43 MMac, 0.616% MACs, 128, 64, kernel_size=(1, 1), stride=(1, 1), bias=False)
  (main_net.CSPDarknet.ResBlock2.BottleneckCSP.cv1.bn): BatchNorm2d(128, 0.002% Params, 819.2 KMac, 0.010% MACs, 64, eps=0.001, momentum=0.03, affine=True, track_running_stats=True)
  (main_net.CSPDarknet.ResBlock2.BottleneckCSP.cv1.lkrelu): LeakyReLU(0, 0.000% Params, 409.6 KMac, 0.005% MACs, negative_slope=0.1, inplace=True)
  (main_net.CSPDarknet.ResBlock2.BottleneckCSP.cv2): Conv2d(8.19 k, 0.112% Params, 52.43 MMac, 0.616% MACs, 128, 64, kernel_size=(1, 1), stride=(1, 1), bias=False)
  (main_net.CSPDarknet.ResBlock2.BottleneckCSP.cv3): Conv2d(4.1 k, 0.056% Params, 26.21 MMac, 0.308% MACs, 64, 64, kernel_size=(1, 1), stride=(1, 1), bias=False)
  (main_net.CSPDarknet.ResBlock2.BottleneckCSP.cv4.conv): Conv2d(16.38 k, 0.224% Params, 104.86 MMac, 1.232% MACs, 128, 128, kernel_size=(1, 1), stride=(1, 1), bias=False)
  (main_net.CSPDarknet.ResBlock2.BottleneckCSP.cv4.bn): BatchNorm2d(256, 0.004% Params, 1.64 MMac, 0.019% MACs, 128, eps=0.001, momentum=0.03, affine=True, track_running_stats=True)
  (main_net.CSPDarknet.ResBlock2.BottleneckCSP.cv4.lkrelu): LeakyReLU(0, 0.000% Params, 819.2 KMac, 0.010% MACs, negative_slope=0.1, inplace=True)
  (main_net.CSPDarknet.ResBlock2.BottleneckCSP.bn): BatchNorm2d(256, 0.004% Params, 1.64 MMac, 0.019% MACs, 128, eps=0.001, momentum=0.03, affine=True, track_running_stats=True)
  (main_net.CSPDarknet.ResBlock2.BottleneckCSP.lkrelu): LeakyReLU(0, 0.000% Params, 819.2 KMac, 0.010% MACs, negative_slope=0.1, inplace=True)
  (main_net.CSPDarknet.ResBlock2.BottleneckCSP.Bottleneck_layers.0.cv1.conv): Conv2d(4.1 k, 0.056% Params, 26.21 MMac, 0.308% MACs, 64, 64, kernel_size=(1, 1), stride=(1, 1), bias=False)
  (main_net.CSPDarknet.ResBlock2.BottleneckCSP.Bottleneck_layers.0.cv1.bn): BatchNorm2d(128, 0.002% Params, 819.2 KMac, 0.010% MACs, 64, eps=0.001, momentum=0.03, affine=True, track_running_stats=True)
  (main_net.CSPDarknet.ResBlock2.BottleneckCSP.Bottleneck_layers.0.cv1.lkrelu): LeakyReLU(0, 0.000% Params, 409.6 KMac, 0.005% MACs, negative_slope=0.1, inplace=True)
  (main_net.CSPDarknet.ResBlock2.BottleneckCSP.Bottleneck_layers.0.cv2.conv): Conv2d(36.86 k, 0.505% Params, 235.93 MMac, 2.771% MACs, 64, 64, kernel_size=(3, 3), stride=(1, 1), padding=(1, 1), bias=False)
  (main_net.CSPDarknet.ResBlock2.BottleneckCSP.Bottleneck_layers.0.cv2.bn): BatchNorm2d(128, 0.002% Params, 819.2 KMac, 0.010% MACs, 64, eps=0.001, momentum=0.03, affine=True, track_running_stats=True)
  (main_net.CSPDarknet.ResBlock2.BottleneckCSP.Bottleneck_layers.0.cv2.lkrelu): LeakyReLU(0, 0.000% Params, 409.6 KMac, 0.005% MACs, negative_slope=0.1, inplace=True)
  (main_net.CSPDarknet.ResBlock2.BottleneckCSP.Bottleneck_layers.1.cv1.conv): Conv2d(4.1 k, 0.056% Params, 26.21 MMac, 0.308% MACs, 64, 64, kernel_size=(1, 1), stride=(1, 1), bias=False)
  (main_net.CSPDarknet.ResBlock2.BottleneckCSP.Bottleneck_layers.1.cv1.bn): BatchNorm2d(128, 0.002% Params, 819.2 KMac, 0.010% MACs, 64, eps=0.001, momentum=0.03, affine=True, track_running_stats=True)
  (main_net.CSPDarknet.ResBlock2.BottleneckCSP.Bottleneck_layers.1.cv1.lkrelu): LeakyReLU(0, 0.000% Params, 409.6 KMac, 0.005% MACs, negative_slope=0.1, inplace=True)
  (main_net.CSPDarknet.ResBlock2.BottleneckCSP.Bottleneck_layers.1.cv2.conv): Conv2d(36.86 k, 0.505% Params, 235.93 MMac, 2.771% MACs, 64, 64, kernel_size=(3, 3), stride=(1, 1), padding=(1, 1), bias=False)
  (main_net.CSPDarknet.ResBlock2.BottleneckCSP.Bottleneck_layers.1.cv2.bn): BatchNorm2d(128, 0.002% Params, 819.2 KMac, 0.010% MACs, 64, eps=0.001, momentum=0.03, affine=True, track_running_stats=True)
  (main_net.CSPDarknet.ResBlock2.BottleneckCSP.Bottleneck_layers.1.cv2.lkrelu): LeakyReLU(0, 0.000% Params, 409.6 KMac, 0.005% MACs, negative_slope=0.1, inplace=True)
  (main_net.CSPDarknet.ResBlock2.BottleneckCSP.Bottleneck_layers.2.cv1.conv): Conv2d(4.1 k, 0.056% Params, 26.21 MMac, 0.308% MACs, 64, 64, kernel_size=(1, 1), stride=(1, 1), bias=False)
  (main_net.CSPDarknet.ResBlock2.BottleneckCSP.Bottleneck_layers.2.cv1.bn): BatchNorm2d(128, 0.002% Params, 819.2 KMac, 0.010% MACs, 64, eps=0.001, momentum=0.03, affine=True, track_running_stats=True)
  (main_net.CSPDarknet.ResBlock2.BottleneckCSP.Bottleneck_layers.2.cv1.lkrelu): LeakyReLU(0, 0.000% Params, 409.6 KMac, 0.005% MACs, negative_slope=0.1, inplace=True)
  (main_net.CSPDarknet.ResBlock2.BottleneckCSP.Bottleneck_layers.2.cv2.conv): Conv2d(36.86 k, 0.505% Params, 235.93 MMac, 2.771% MACs, 64, 64, kernel_size=(3, 3), stride=(1, 1), padding=(1, 1), bias=False)
  (main_net.CSPDarknet.ResBlock2.BottleneckCSP.Bottleneck_layers.2.cv2.bn): BatchNorm2d(128, 0.002% Params, 819.2 KMac, 0.010% MACs, 64, eps=0.001, momentum=0.03, affine=True, track_running_stats=True)
  (main_net.CSPDarknet.ResBlock2.BottleneckCSP.Bottleneck_layers.2.cv2.lkrelu): LeakyReLU(0, 0.000% Params, 409.6 KMac, 0.005% MACs, negative_slope=0.1, inplace=True)
  (main_net.CSPDarknet.ResBlock3.Conv.conv): Conv2d(294.91 k, 4.036% Params, 471.86 MMac, 5.542% MACs, 128, 256, kernel_size=(3, 3), stride=(2, 2), padding=(1, 1), bias=False)
  (main_net.CSPDarknet.ResBlock3.Conv.bn): BatchNorm2d(512, 0.007% Params, 819.2 KMac, 0.010% MACs, 256, eps=0.001, momentum=0.03, affine=True, track_running_stats=True)
  (main_net.CSPDarknet.ResBlock3.Conv.lkrelu): LeakyReLU(0, 0.000% Params, 409.6 KMac, 0.005% MACs, negative_slope=0.1, inplace=True)
  (main_net.CSPDarknet.ResBlock3.BottleneckCSP.cv1.conv): Conv2d(32.77 k, 0.448% Params, 52.43 MMac, 0.616% MACs, 256, 128, kernel_size=(1, 1), stride=(1, 1), bias=False)
  (main_net.CSPDarknet.ResBlock3.BottleneckCSP.cv1.bn): BatchNorm2d(256, 0.004% Params, 409.6 KMac, 0.005% MACs, 128, eps=0.001, momentum=0.03, affine=True, track_running_stats=True)
  (main_net.CSPDarknet.ResBlock3.BottleneckCSP.cv1.lkrelu): LeakyReLU(0, 0.000% Params, 204.8 KMac, 0.002% MACs, negative_slope=0.1, inplace=True)
  (main_net.CSPDarknet.ResBlock3.BottleneckCSP.cv2): Conv2d(32.77 k, 0.448% Params, 52.43 MMac, 0.616% MACs, 256, 128, kernel_size=(1, 1), stride=(1, 1), bias=False)
  (main_net.CSPDarknet.ResBlock3.BottleneckCSP.cv3): Conv2d(16.38 k, 0.224% Params, 26.21 MMac, 0.308% MACs, 128, 128, kernel_size=(1, 1), stride=(1, 1), bias=False)
  (main_net.CSPDarknet.ResBlock3.BottleneckCSP.cv4.conv): Conv2d(65.54 k, 0.897% Params, 104.86 MMac, 1.232% MACs, 256, 256, kernel_size=(1, 1), stride=(1, 1), bias=False)
  (main_net.CSPDarknet.ResBlock3.BottleneckCSP.cv4.bn): BatchNorm2d(512, 0.007% Params, 819.2 KMac, 0.010% MACs, 256, eps=0.001, momentum=0.03, affine=True, track_running_stats=True)
  (main_net.CSPDarknet.ResBlock3.BottleneckCSP.cv4.lkrelu): LeakyReLU(0, 0.000% Params, 409.6 KMac, 0.005% MACs, negative_slope=0.1, inplace=True)
  (main_net.CSPDarknet.ResBlock3.BottleneckCSP.bn): BatchNorm2d(512, 0.007% Params, 819.2 KMac, 0.010% MACs, 256, eps=0.001, momentum=0.03, affine=True, track_running_stats=True)
  (main_net.CSPDarknet.ResBlock3.BottleneckCSP.lkrelu): LeakyReLU(0, 0.000% Params, 409.6 KMac, 0.005% MACs, negative_slope=0.1, inplace=True)
  (main_net.CSPDarknet.ResBlock3.BottleneckCSP.Bottleneck_layers.0.cv1.conv): Conv2d(16.38 k, 0.224% Params, 26.21 MMac, 0.308% MACs, 128, 128, kernel_size=(1, 1), stride=(1, 1), bias=False)
  (main_net.CSPDarknet.ResBlock3.BottleneckCSP.Bottleneck_layers.0.cv1.bn): BatchNorm2d(256, 0.004% Params, 409.6 KMac, 0.005% MACs, 128, eps=0.001, momentum=0.03, affine=True, track_running_stats=True)
  (main_net.CSPDarknet.ResBlock3.BottleneckCSP.Bottleneck_layers.0.cv1.lkrelu): LeakyReLU(0, 0.000% Params, 204.8 KMac, 0.002% MACs, negative_slope=0.1, inplace=True)
  (main_net.CSPDarknet.ResBlock3.BottleneckCSP.Bottleneck_layers.0.cv2.conv): Conv2d(147.46 k, 2.018% Params, 235.93 MMac, 2.771% MACs, 128, 128, kernel_size=(3, 3), stride=(1, 1), padding=(1, 1), bias=False)
  (main_net.CSPDarknet.ResBlock3.BottleneckCSP.Bottleneck_layers.0.cv2.bn): BatchNorm2d(256, 0.004% Params, 409.6 KMac, 0.005% MACs, 128, eps=0.001, momentum=0.03, affine=True, track_running_stats=True)
  (main_net.CSPDarknet.ResBlock3.BottleneckCSP.Bottleneck_layers.0.cv2.lkrelu): LeakyReLU(0, 0.000% Params, 204.8 KMac, 0.002% MACs, negative_slope=0.1, inplace=True)
  (main_net.CSPDarknet.ResBlock3.BottleneckCSP.Bottleneck_layers.1.cv1.conv): Conv2d(16.38 k, 0.224% Params, 26.21 MMac, 0.308% MACs, 128, 128, kernel_size=(1, 1), stride=(1, 1), bias=False)
  (main_net.CSPDarknet.ResBlock3.BottleneckCSP.Bottleneck_layers.1.cv1.bn): BatchNorm2d(256, 0.004% Params, 409.6 KMac, 0.005% MACs, 128, eps=0.001, momentum=0.03, affine=True, track_running_stats=True)
  (main_net.CSPDarknet.ResBlock3.BottleneckCSP.Bottleneck_layers.1.cv1.lkrelu): LeakyReLU(0, 0.000% Params, 204.8 KMac, 0.002% MACs, negative_slope=0.1, inplace=True)
  (main_net.CSPDarknet.ResBlock3.BottleneckCSP.Bottleneck_layers.1.cv2.conv): Conv2d(147.46 k, 2.018% Params, 235.93 MMac, 2.771% MACs, 128, 128, kernel_size=(3, 3), stride=(1, 1), padding=(1, 1), bias=False)
  (main_net.CSPDarknet.ResBlock3.BottleneckCSP.Bottleneck_layers.1.cv2.bn): BatchNorm2d(256, 0.004% Params, 409.6 KMac, 0.005% MACs, 128, eps=0.001, momentum=0.03, affine=True, track_running_stats=True)
  (main_net.CSPDarknet.ResBlock3.BottleneckCSP.Bottleneck_layers.1.cv2.lkrelu): LeakyReLU(0, 0.000% Params, 204.8 KMac, 0.002% MACs, negative_slope=0.1, inplace=True)
  (main_net.CSPDarknet.ResBlock3.BottleneckCSP.Bottleneck_layers.2.cv1.conv): Conv2d(16.38 k, 0.224% Params, 26.21 MMac, 0.308% MACs, 128, 128, kernel_size=(1, 1), stride=(1, 1), bias=False)
  (main_net.CSPDarknet.ResBlock3.BottleneckCSP.Bottleneck_layers.2.cv1.bn): BatchNorm2d(256, 0.004% Params, 409.6 KMac, 0.005% MACs, 128, eps=0.001, momentum=0.03, affine=True, track_running_stats=True)
  (main_net.CSPDarknet.ResBlock3.BottleneckCSP.Bottleneck_layers.2.cv1.lkrelu): LeakyReLU(0, 0.000% Params, 204.8 KMac, 0.002% MACs, negative_slope=0.1, inplace=True)
  (main_net.CSPDarknet.ResBlock3.BottleneckCSP.Bottleneck_layers.2.cv2.conv): Conv2d(147.46 k, 2.018% Params, 235.93 MMac, 2.771% MACs, 128, 128, kernel_size=(3, 3), stride=(1, 1), padding=(1, 1), bias=False)
  (main_net.CSPDarknet.ResBlock3.BottleneckCSP.Bottleneck_layers.2.cv2.bn): BatchNorm2d(256, 0.004% Params, 409.6 KMac, 0.005% MACs, 128, eps=0.001, momentum=0.03, affine=True, track_running_stats=True)
  (main_net.CSPDarknet.ResBlock3.BottleneckCSP.Bottleneck_layers.2.cv2.lkrelu): LeakyReLU(0, 0.000% Params, 204.8 KMac, 0.002% MACs, negative_slope=0.1, inplace=True)
  (main_net.CSPDarknet.ResBlock4.Conv.conv): Conv2d(1.18 M, 16.146% Params, 471.86 MMac, 5.542% MACs, 256, 512, kernel_size=(3, 3), stride=(2, 2), padding=(1, 1), bias=False)
  (main_net.CSPDarknet.ResBlock4.Conv.bn): BatchNorm2d(1.02 k, 0.014% Params, 409.6 KMac, 0.005% MACs, 512, eps=0.001, momentum=0.03, affine=True, track_running_stats=True)
  (main_net.CSPDarknet.ResBlock4.Conv.lkrelu): LeakyReLU(0, 0.000% Params, 204.8 KMac, 0.002% MACs, negative_slope=0.1, inplace=True)
  (main_net.CSPDarknet.ResBlock4.SPP.cv1.conv): Conv2d(131.07 k, 1.794% Params, 52.43 MMac, 0.616% MACs, 512, 256, kernel_size=(1, 1), stride=(1, 1), bias=False)
  (main_net.CSPDarknet.ResBlock4.SPP.cv1.bn): BatchNorm2d(512, 0.007% Params, 204.8 KMac, 0.002% MACs, 256, eps=0.001, momentum=0.03, affine=True, track_running_stats=True)
  (main_net.CSPDarknet.ResBlock4.SPP.cv1.lkrelu): LeakyReLU(0, 0.000% Params, 102.4 KMac, 0.001% MACs, negative_slope=0.1, inplace=True)
  (main_net.CSPDarknet.ResBlock4.SPP.cv2.conv): Conv2d(524.29 k, 7.176% Params, 209.72 MMac, 2.463% MACs, 1024, 512, kernel_size=(1, 1), stride=(1, 1), bias=False)
  (main_net.CSPDarknet.ResBlock4.SPP.cv2.bn): BatchNorm2d(1.02 k, 0.014% Params, 409.6 KMac, 0.005% MACs, 512, eps=0.001, momentum=0.03, affine=True, track_running_stats=True)
  (main_net.CSPDarknet.ResBlock4.SPP.cv2.lkrelu): LeakyReLU(0, 0.000% Params, 204.8 KMac, 0.002% MACs, negative_slope=0.1, inplace=True)
  (main_net.CSPDarknet.ResBlock4.BottleneckCSP.cv1.conv): Conv2d(131.07 k, 1.794% Params, 52.43 MMac, 0.616% MACs, 512, 256, kernel_size=(1, 1), stride=(1, 1), bias=False)
  (main_net.CSPDarknet.ResBlock4.BottleneckCSP.cv1.bn): BatchNorm2d(512, 0.007% Params, 204.8 KMac, 0.002% MACs, 256, eps=0.001, momentum=0.03, affine=True, track_running_stats=True)
  (main_net.CSPDarknet.ResBlock4.BottleneckCSP.cv1.lkrelu): LeakyReLU(0, 0.000% Params, 102.4 KMac, 0.001% MACs, negative_slope=0.1, inplace=True)
  (main_net.CSPDarknet.ResBlock4.BottleneckCSP.cv2): Conv2d(131.07 k, 1.794% Params, 52.43 MMac, 0.616% MACs, 512, 256, kernel_size=(1, 1), stride=(1, 1), bias=False)
  (main_net.CSPDarknet.ResBlock4.BottleneckCSP.cv3): Conv2d(65.54 k, 0.897% Params, 26.21 MMac, 0.308% MACs, 256, 256, kernel_size=(1, 1), stride=(1, 1), bias=False)
  (main_net.CSPDarknet.ResBlock4.BottleneckCSP.cv4.conv): Conv2d(262.14 k, 3.588% Params, 104.86 MMac, 1.232% MACs, 512, 512, kernel_size=(1, 1), stride=(1, 1), bias=False)
  (main_net.CSPDarknet.ResBlock4.BottleneckCSP.cv4.bn): BatchNorm2d(1.02 k, 0.014% Params, 409.6 KMac, 0.005% MACs, 512, eps=0.001, momentum=0.03, affine=True, track_running_stats=True)
  (main_net.CSPDarknet.ResBlock4.BottleneckCSP.cv4.lkrelu): LeakyReLU(0, 0.000% Params, 204.8 KMac, 0.002% MACs, negative_slope=0.1, inplace=True)
  (main_net.CSPDarknet.ResBlock4.BottleneckCSP.bn): BatchNorm2d(1.02 k, 0.014% Params, 409.6 KMac, 0.005% MACs, 512, eps=0.001, momentum=0.03, affine=True, track_running_stats=True)
  (main_net.CSPDarknet.ResBlock4.BottleneckCSP.lkrelu): LeakyReLU(0, 0.000% Params, 204.8 KMac, 0.002% MACs, negative_slope=0.1, inplace=True)
  (main_net.CSPDarknet.ResBlock4.BottleneckCSP.Bottleneck_layers.0.cv1.conv): Conv2d(65.54 k, 0.897% Params, 26.21 MMac, 0.308% MACs, 256, 256, kernel_size=(1, 1), stride=(1, 1), bias=False)
  (main_net.CSPDarknet.ResBlock4.BottleneckCSP.Bottleneck_layers.0.cv1.bn): BatchNorm2d(512, 0.007% Params, 204.8 KMac, 0.002% MACs, 256, eps=0.001, momentum=0.03, affine=True, track_running_stats=True)
  (main_net.CSPDarknet.ResBlock4.BottleneckCSP.Bottleneck_layers.0.cv1.lkrelu): LeakyReLU(0, 0.000% Params, 102.4 KMac, 0.001% MACs, negative_slope=0.1, inplace=True)
  (main_net.CSPDarknet.ResBlock4.BottleneckCSP.Bottleneck_layers.0.cv2.conv): Conv2d(589.82 k, 8.073% Params, 235.93 MMac, 2.771% MACs, 256, 256, kernel_size=(3, 3), stride=(1, 1), padding=(1, 1), bias=False)
  (main_net.CSPDarknet.ResBlock4.BottleneckCSP.Bottleneck_layers.0.cv2.bn): BatchNorm2d(512, 0.007% Params, 204.8 KMac, 0.002% MACs, 256, eps=0.001, momentum=0.03, affine=True, track_running_stats=True)
  (main_net.CSPDarknet.ResBlock4.BottleneckCSP.Bottleneck_layers.0.cv2.lkrelu): LeakyReLU(0, 0.000% Params, 102.4 KMac, 0.001% MACs, negative_slope=0.1, inplace=True)
  (main_net.Conv1.conv): Conv2d(131.07 k, 1.794% Params, 52.43 MMac, 0.616% MACs, 512, 256, kernel_size=(1, 1), stride=(1, 1), bias=False)
  (main_net.Conv1.bn): BatchNorm2d(512, 0.007% Params, 204.8 KMac, 0.002% MACs, 256, eps=0.001, momentum=0.03, affine=True, track_running_stats=True)
  (main_net.Conv1.lkrelu): LeakyReLU(0, 0.000% Params, 102.4 KMac, 0.001% MACs, negative_slope=0.1, inplace=True)
  (main_net.BottleneckCSP1.cv1.conv): Conv2d(65.54 k, 0.897% Params, 104.86 MMac, 1.232% MACs, 512, 128, kernel_size=(1, 1), stride=(1, 1), bias=False)
  (main_net.BottleneckCSP1.cv1.bn): BatchNorm2d(256, 0.004% Params, 409.6 KMac, 0.005% MACs, 128, eps=0.001, momentum=0.03, affine=True, track_running_stats=True)
  (main_net.BottleneckCSP1.cv1.lkrelu): LeakyReLU(0, 0.000% Params, 204.8 KMac, 0.002% MACs, negative_slope=0.1, inplace=True)
  (main_net.BottleneckCSP1.cv2): Conv2d(65.54 k, 0.897% Params, 104.86 MMac, 1.232% MACs, 512, 128, kernel_size=(1, 1), stride=(1, 1), bias=False)
  (main_net.BottleneckCSP1.cv3): Conv2d(16.38 k, 0.224% Params, 26.21 MMac, 0.308% MACs, 128, 128, kernel_size=(1, 1), stride=(1, 1), bias=False)
  (main_net.BottleneckCSP1.cv4.conv): Conv2d(65.54 k, 0.897% Params, 104.86 MMac, 1.232% MACs, 256, 256, kernel_size=(1, 1), stride=(1, 1), bias=False)
  (main_net.BottleneckCSP1.cv4.bn): BatchNorm2d(512, 0.007% Params, 819.2 KMac, 0.010% MACs, 256, eps=0.001, momentum=0.03, affine=True, track_running_stats=True)
  (main_net.BottleneckCSP1.cv4.lkrelu): LeakyReLU(0, 0.000% Params, 409.6 KMac, 0.005% MACs, negative_slope=0.1, inplace=True)
  (main_net.BottleneckCSP1.bn): BatchNorm2d(512, 0.007% Params, 819.2 KMac, 0.010% MACs, 256, eps=0.001, momentum=0.03, affine=True, track_running_stats=True)
  (main_net.BottleneckCSP1.lkrelu): LeakyReLU(0, 0.000% Params, 409.6 KMac, 0.005% MACs, negative_slope=0.1, inplace=True)
  (main_net.BottleneckCSP1.Bottleneck_layers.0.cv1.conv): Conv2d(16.38 k, 0.224% Params, 26.21 MMac, 0.308% MACs, 128, 128, kernel_size=(1, 1), stride=(1, 1), bias=False)
  (main_net.BottleneckCSP1.Bottleneck_layers.0.cv1.bn): BatchNorm2d(256, 0.004% Params, 409.6 KMac, 0.005% MACs, 128, eps=0.001, momentum=0.03, affine=True, track_running_stats=True)
  (main_net.BottleneckCSP1.Bottleneck_layers.0.cv1.lkrelu): LeakyReLU(0, 0.000% Params, 204.8 KMac, 0.002% MACs, negative_slope=0.1, inplace=True)
  (main_net.BottleneckCSP1.Bottleneck_layers.0.cv2.conv): Conv2d(147.46 k, 2.018% Params, 235.93 MMac, 2.771% MACs, 128, 128, kernel_size=(3, 3), stride=(1, 1), padding=(1, 1), bias=False)
  (main_net.BottleneckCSP1.Bottleneck_layers.0.cv2.bn): BatchNorm2d(256, 0.004% Params, 409.6 KMac, 0.005% MACs, 128, eps=0.001, momentum=0.03, affine=True, track_running_stats=True)
  (main_net.BottleneckCSP1.Bottleneck_layers.0.cv2.lkrelu): LeakyReLU(0, 0.000% Params, 204.8 KMac, 0.002% MACs, negative_slope=0.1, inplace=True)
  (main_net.Conv2.conv): Conv2d(32.77 k, 0.448% Params, 52.43 MMac, 0.616% MACs, 256, 128, kernel_size=(1, 1), stride=(1, 1), bias=False)
  (main_net.Conv2.bn): BatchNorm2d(256, 0.004% Params, 409.6 KMac, 0.005% MACs, 128, eps=0.001, momentum=0.03, affine=True, track_running_stats=True)
  (main_net.Conv2.lkrelu): LeakyReLU(0, 0.000% Params, 204.8 KMac, 0.002% MACs, negative_slope=0.1, inplace=True)
  (main_net.BottleneckCSP2.cv1.conv): Conv2d(16.38 k, 0.224% Params, 104.86 MMac, 1.232% MACs, 256, 64, kernel_size=(1, 1), stride=(1, 1), bias=False)
  (main_net.BottleneckCSP2.cv1.bn): BatchNorm2d(128, 0.002% Params, 819.2 KMac, 0.010% MACs, 64, eps=0.001, momentum=0.03, affine=True, track_running_stats=True)
  (main_net.BottleneckCSP2.cv1.lkrelu): LeakyReLU(0, 0.000% Params, 409.6 KMac, 0.005% MACs, negative_slope=0.1, inplace=True)
  (main_net.BottleneckCSP2.cv2): Conv2d(16.38 k, 0.224% Params, 104.86 MMac, 1.232% MACs, 256, 64, kernel_size=(1, 1), stride=(1, 1), bias=False)
  (main_net.BottleneckCSP2.cv3): Conv2d(4.1 k, 0.056% Params, 26.21 MMac, 0.308% MACs, 64, 64, kernel_size=(1, 1), stride=(1, 1), bias=False)
  (main_net.BottleneckCSP2.cv4.conv): Conv2d(16.38 k, 0.224% Params, 104.86 MMac, 1.232% MACs, 128, 128, kernel_size=(1, 1), stride=(1, 1), bias=False)
  (main_net.BottleneckCSP2.cv4.bn): BatchNorm2d(256, 0.004% Params, 1.64 MMac, 0.019% MACs, 128, eps=0.001, momentum=0.03, affine=True, track_running_stats=True)
  (main_net.BottleneckCSP2.cv4.lkrelu): LeakyReLU(0, 0.000% Params, 819.2 KMac, 0.010% MACs, negative_slope=0.1, inplace=True)
  (main_net.BottleneckCSP2.bn): BatchNorm2d(256, 0.004% Params, 1.64 MMac, 0.019% MACs, 128, eps=0.001, momentum=0.03, affine=True, track_running_stats=True)
  (main_net.BottleneckCSP2.lkrelu): LeakyReLU(0, 0.000% Params, 819.2 KMac, 0.010% MACs, negative_slope=0.1, inplace=True)
  (main_net.BottleneckCSP2.Bottleneck_layers.0.cv1.conv): Conv2d(4.1 k, 0.056% Params, 26.21 MMac, 0.308% MACs, 64, 64, kernel_size=(1, 1), stride=(1, 1), bias=False)
  (main_net.BottleneckCSP2.Bottleneck_layers.0.cv1.bn): BatchNorm2d(128, 0.002% Params, 819.2 KMac, 0.010% MACs, 64, eps=0.001, momentum=0.03, affine=True, track_running_stats=True)
  (main_net.BottleneckCSP2.Bottleneck_layers.0.cv1.lkrelu): LeakyReLU(0, 0.000% Params, 409.6 KMac, 0.005% MACs, negative_slope=0.1, inplace=True)
  (main_net.BottleneckCSP2.Bottleneck_layers.0.cv2.conv): Conv2d(36.86 k, 0.505% Params, 235.93 MMac, 2.771% MACs, 64, 64, kernel_size=(3, 3), stride=(1, 1), padding=(1, 1), bias=False)
  (main_net.BottleneckCSP2.Bottleneck_layers.0.cv2.bn): BatchNorm2d(128, 0.002% Params, 819.2 KMac, 0.010% MACs, 64, eps=0.001, momentum=0.03, affine=True, track_running_stats=True)
  (main_net.BottleneckCSP2.Bottleneck_layers.0.cv2.lkrelu): LeakyReLU(0, 0.000% Params, 409.6 KMac, 0.005% MACs, negative_slope=0.1, inplace=True)
  (main_net.Conv3.conv): Conv2d(147.46 k, 2.018% Params, 235.93 MMac, 2.771% MACs, 128, 128, kernel_size=(3, 3), stride=(2, 2), padding=(1, 1), bias=False)
  (main_net.Conv3.bn): BatchNorm2d(256, 0.004% Params, 409.6 KMac, 0.005% MACs, 128, eps=0.001, momentum=0.03, affine=True, track_running_stats=True)
  (main_net.Conv3.lkrelu): LeakyReLU(0, 0.000% Params, 204.8 KMac, 0.002% MACs, negative_slope=0.1, inplace=True)
  (main_net.BottleneckCSP3.cv1.conv): Conv2d(32.77 k, 0.448% Params, 52.43 MMac, 0.616% MACs, 256, 128, kernel_size=(1, 1), stride=(1, 1), bias=False)
  (main_net.BottleneckCSP3.cv1.bn): BatchNorm2d(256, 0.004% Params, 409.6 KMac, 0.005% MACs, 128, eps=0.001, momentum=0.03, affine=True, track_running_stats=True)
  (main_net.BottleneckCSP3.cv1.lkrelu): LeakyReLU(0, 0.000% Params, 204.8 KMac, 0.002% MACs, negative_slope=0.1, inplace=True)
  (main_net.BottleneckCSP3.cv2): Conv2d(32.77 k, 0.448% Params, 52.43 MMac, 0.616% MACs, 256, 128, kernel_size=(1, 1), stride=(1, 1), bias=False)
  (main_net.BottleneckCSP3.cv3): Conv2d(16.38 k, 0.224% Params, 26.21 MMac, 0.308% MACs, 128, 128, kernel_size=(1, 1), stride=(1, 1), bias=False)
  (main_net.BottleneckCSP3.cv4.conv): Conv2d(65.54 k, 0.897% Params, 104.86 MMac, 1.232% MACs, 256, 256, kernel_size=(1, 1), stride=(1, 1), bias=False)
  (main_net.BottleneckCSP3.cv4.bn): BatchNorm2d(512, 0.007% Params, 819.2 KMac, 0.010% MACs, 256, eps=0.001, momentum=0.03, affine=True, track_running_stats=True)
  (main_net.BottleneckCSP3.cv4.lkrelu): LeakyReLU(0, 0.000% Params, 409.6 KMac, 0.005% MACs, negative_slope=0.1, inplace=True)
  (main_net.BottleneckCSP3.bn): BatchNorm2d(512, 0.007% Params, 819.2 KMac, 0.010% MACs, 256, eps=0.001, momentum=0.03, affine=True, track_running_stats=True)
  (main_net.BottleneckCSP3.lkrelu): LeakyReLU(0, 0.000% Params, 409.6 KMac, 0.005% MACs, negative_slope=0.1, inplace=True)
  (main_net.BottleneckCSP3.Bottleneck_layers.0.cv1.conv): Conv2d(16.38 k, 0.224% Params, 26.21 MMac, 0.308% MACs, 128, 128, kernel_size=(1, 1), stride=(1, 1), bias=False)
  (main_net.BottleneckCSP3.Bottleneck_layers.0.cv1.bn): BatchNorm2d(256, 0.004% Params, 409.6 KMac, 0.005% MACs, 128, eps=0.001, momentum=0.03, affine=True, track_running_stats=True)
  (main_net.BottleneckCSP3.Bottleneck_layers.0.cv1.lkrelu): LeakyReLU(0, 0.000% Params, 204.8 KMac, 0.002% MACs, negative_slope=0.1, inplace=True)
  (main_net.BottleneckCSP3.Bottleneck_layers.0.cv2.conv): Conv2d(147.46 k, 2.018% Params, 235.93 MMac, 2.771% MACs, 128, 128, kernel_size=(3, 3), stride=(1, 1), padding=(1, 1), bias=False)
  (main_net.BottleneckCSP3.Bottleneck_layers.0.cv2.bn): BatchNorm2d(256, 0.004% Params, 409.6 KMac, 0.005% MACs, 128, eps=0.001, momentum=0.03, affine=True, track_running_stats=True)
  (main_net.BottleneckCSP3.Bottleneck_layers.0.cv2.lkrelu): LeakyReLU(0, 0.000% Params, 204.8 KMac, 0.002% MACs, negative_slope=0.1, inplace=True)
  (main_net.Conv4.conv): Conv2d(589.82 k, 8.073% Params, 235.93 MMac, 2.771% MACs, 256, 256, kernel_size=(3, 3), stride=(2, 2), padding=(1, 1), bias=False)
  (main_net.Conv4.bn): BatchNorm2d(512, 0.007% Params, 204.8 KMac, 0.002% MACs, 256, eps=0.001, momentum=0.03, affine=True, track_running_stats=True)
  (main_net.Conv4.lkrelu): LeakyReLU(0, 0.000% Params, 102.4 KMac, 0.001% MACs, negative_slope=0.1, inplace=True)
  (main_net.BottleneckCSP4.cv1.conv): Conv2d(131.07 k, 1.794% Params, 52.43 MMac, 0.616% MACs, 512, 256, kernel_size=(1, 1), stride=(1, 1), bias=False)
  (main_net.BottleneckCSP4.cv1.bn): BatchNorm2d(512, 0.007% Params, 204.8 KMac, 0.002% MACs, 256, eps=0.001, momentum=0.03, affine=True, track_running_stats=True)
  (main_net.BottleneckCSP4.cv1.lkrelu): LeakyReLU(0, 0.000% Params, 102.4 KMac, 0.001% MACs, negative_slope=0.1, inplace=True)
  (main_net.BottleneckCSP4.cv2): Conv2d(131.07 k, 1.794% Params, 52.43 MMac, 0.616% MACs, 512, 256, kernel_size=(1, 1), stride=(1, 1), bias=False)
  (main_net.BottleneckCSP4.cv3): Conv2d(65.54 k, 0.897% Params, 26.21 MMac, 0.308% MACs, 256, 256, kernel_size=(1, 1), stride=(1, 1), bias=False)
  (main_net.BottleneckCSP4.cv4.conv): Conv2d(262.14 k, 3.588% Params, 104.86 MMac, 1.232% MACs, 512, 512, kernel_size=(1, 1), stride=(1, 1), bias=False)
  (main_net.BottleneckCSP4.cv4.bn): BatchNorm2d(1.02 k, 0.014% Params, 409.6 KMac, 0.005% MACs, 512, eps=0.001, momentum=0.03, affine=True, track_running_stats=True)
  (main_net.BottleneckCSP4.cv4.lkrelu): LeakyReLU(0, 0.000% Params, 204.8 KMac, 0.002% MACs, negative_slope=0.1, inplace=True)
  (main_net.BottleneckCSP4.bn): BatchNorm2d(1.02 k, 0.014% Params, 409.6 KMac, 0.005% MACs, 512, eps=0.001, momentum=0.03, affine=True, track_running_stats=True)
  (main_net.BottleneckCSP4.lkrelu): LeakyReLU(0, 0.000% Params, 204.8 KMac, 0.002% MACs, negative_slope=0.1, inplace=True)
  (main_net.BottleneckCSP4.Bottleneck_layers.0.cv1.conv): Conv2d(65.54 k, 0.897% Params, 26.21 MMac, 0.308% MACs, 256, 256, kernel_size=(1, 1), stride=(1, 1), bias=False)
  (main_net.BottleneckCSP4.Bottleneck_layers.0.cv1.bn): BatchNorm2d(512, 0.007% Params, 204.8 KMac, 0.002% MACs, 256, eps=0.001, momentum=0.03, affine=True, track_running_stats=True)
  (main_net.BottleneckCSP4.Bottleneck_layers.0.cv1.lkrelu): LeakyReLU(0, 0.000% Params, 102.4 KMac, 0.001% MACs, negative_slope=0.1, inplace=True)
  (main_net.BottleneckCSP4.Bottleneck_layers.0.cv2.conv): Conv2d(589.82 k, 8.073% Params, 235.93 MMac, 2.771% MACs, 256, 256, kernel_size=(3, 3), stride=(1, 1), padding=(1, 1), bias=False)
  (main_net.BottleneckCSP4.Bottleneck_layers.0.cv2.bn): BatchNorm2d(512, 0.007% Params, 204.8 KMac, 0.002% MACs, 256, eps=0.001, momentum=0.03, affine=True, track_running_stats=True)
  (main_net.BottleneckCSP4.Bottleneck_layers.0.cv2.lkrelu): LeakyReLU(0, 0.000% Params, 102.4 KMac, 0.001% MACs, negative_slope=0.1, inplace=True)
)